src/mnist_ml_pipeline/models/20250808_213347.pth (torch, 104040 bytes, 10 tensors)

conv1.0.weight f4 [8, 1, 3, 3]
0	0x3e7ae072	0.24499682
1	0x3d9ac434	0.07556954
2	0xbe6c4bc5	-0.23075779
3	0x3e06f392	0.13178852
4	0xbe07c2bd	-0.1325788
5	0xbb9bccfa	-0.0047546597
6	0x3db5ab61	0.088705786
7	0x3e44141f	0.191483
8	0xbe4466c7	-0.19179831
9	0x3e3ed22c	0.18634862
10	0x3d923272	0.07138528
11	0x3d7d7e55	0.061888058
12	0x3e4be839	0.19912805
13	0xbe1c5c39	-0.15269555
14	0x3ea45aaa	0.3210042
15	0x3e25d3f7	0.1619414
16	0x3e83c92d	0.25739422
17	0x3e81dfab	0.25365958
18	0x3d9cddd3	0.07659497
19	0x3cdcc406	0.02694894
20	0x3de7df5e	0.11321901
21	0x3d01c298	0.03167972
22	0x3e3632cf	0.1779282
23	0xbe83af19	-0.25719526
24	0xbe84a03a	-0.25903493
25	0x3e0ce572	0.13759401
26	0xbe2e400b	-0.17016618
27	0x3e6a1faf	0.22863649
28	0x3dfe6708	0.124219954
29	0x3ea753c4	0.32681096
30	0x3c8af0e8	0.016960576
31	0x3eb57b0d	0.35445443
32	0xbdd2fed5	-0.103025116
33	0x3e355af3	0.17710476
34	0xbd091322	-0.033465512
35	0x3d9663fb	0.073432885
36	0xbe74bc53	-0.23899965
37	0xbe5dfcab	-0.21678416
38	0xbd833b34	-0.064077765
39	0xbe462271	-0.19349076
40	0x3e9f1f80	0.3107872
41	0xbe21962c	-0.15779942
42	0xbea73412	-0.32656914
43	0xbd2f5805	-0.04280855
44	0xbe78ecbc	-0.24309057
45	0xbe4899d0	-0.19589925
46	0x3e920f53	0.28527316
47	0x3e8a6e7a	0.27037412
48	0x3e66ffaa	0.22558466
49	0xbe970d31	-0.29502252
50	0xbead9e3f	-0.33909795
51	0x3e9d3c08	0.30709863
52	0x3e8908e5	0.26764598
53	0xbe87ef13	-0.26549587
54	0xbd826991	-0.063677914
55	0x3dbbab79	0.09163565
56	0x3eb1fef8	0.34764838
57	0xbc83a300	-0.016068935
58	0x3e68af8b	0.22723214
59	0x3e46379e	0.19357154
60	0x3e3eb56b	0.18623893
61	0x3eadc565	0.33939663
62	0xbe84ca52	-0.25935608
63	0xbea52b09	-0.32259396
64	0x3d6f4153	0.058411907
65	0xbdcd536c	-0.10025677
66	0x3c2c9d7b	0.010535593
67	0x3e49e284	0.19715315
68	0xbe9610aa	-0.2930959
69	0xbea6dab8	-0.32588744
70	0xbe3bafae	-0.18328735
71	0x3e9d257b	0.30692658

conv1.0.bias f4 [8]
0	0xbe3141ef	-0.17310308
1	0x3e853de6	0.26023787
2	0xbdfb340c	-0.122657865
3	0x3d4271fc	0.047471985
4	0x3e414e1b	0.18877451
5	0x3dd1c75a	0.102431014
6	0xbe9cf037	-0.3065202
7	0xbe87b501	-0.26505283

conv2.0.weight f4 [16, 8, 3, 3]
0	0x3dea34a2	0.1143582
1	0x3cd680d6	0.02618448
2	0x3bbb7b43	0.005721481
3	0x3c54aae7	0.012980199
4	0x3d000286	0.031252407
5	0xbd85e6d4	-0.065381676
6	0x3e05cc91	0.13066317
7	0xbdde0153	-0.10840096
8	0x3df1fdf7	0.11816018
9	0xbda58761	-0.08082462
10	0xbdd2d5e3	-0.10294702
11	0x3d1eed71	0.03880066
12	0xbdc076fc	-0.093976945
13	0xbd5c6e04	-0.053815857
14	0x3cf307f3	0.029666876
15	0xbd289594	-0.041158274
16	0x3c537150	0.012905434
17	0xbbbe037f	-0.0057987566
18	0x3db1cd17	0.08681696
19	0x3c14bdcc	0.009078454
20	0x3de3ec2b	0.1112903
21	0xbdc88de6	-0.0979269
22	0xbd1c4d57	-0.038159695
23	0x3dca4fd2	0.09878506
24	0x3d6ced9b	0.057843786
25	0xbc7f05f8	-0.015565388
26	0x3e25c7d1	0.16189505
27	0x3cd51a8e	0.026013639
28	0x3d421264	0.04738082
29	0xbda95396	-0.08267896
30	0x3c978f6c	0.018501006
31	0xbcb58303	-0.022157198
32	0x3da61836	0.081100866
33	0x3e075c9b	0.1321892
34	0x3cc57853	0.024105227
35	0xbd40a04f	-0.047027882
36	0x3b69f1c0	0.0035697073
37	0x3d18876a	0.037238516
38	0x3d9cc36b	0.076544605
39	0x3d462d28	0.048382908
40	0xbd838b2e	-0.06423031
41	0xbd0b5828	-0.03401962
42	0x3e12c559	0.14333095
43	0x3d888f3e	0.06667946
44	0xbd8f2461	-0.069893606
45	0xbdf167e5	-0.117873944
46	0xbde32ad2	-0.11092152
47	0xbccdc791	-0.025119575
48	0xbda45570	-0.080241084
49	0xbd3dbb7a	-0.04632137
50	0xbd11dddb	-0.03561197
51	0x3da68b26	0.08132009
52	0x3cd7993d	0.026318187
53	0x3d2f255b	0.042760234
54	0xbd6aecbc	-0.057354674
55	0x3d4eca8d	0.050486136
56	0x3c9923d3	0.01869384
57	0xbdb5bffe	-0.0887451
58	0xbe0e5280	-0.13898659
59	0xbd8369de	-0.06416677
60	0x3e0dd54c	0.13850898
61	0xbdd5a693	-0.10432162
62	0xbc87b9ab	-0.016568026
63	0xbc823e0b	-0.015898725
64	0x3e1f8e63	0.1558166
65	0x3d42b65a	0.047537185
66	0xbe24db98	-0.16099393
67	0x3d3a9934	0.045556262
68	0x3d4fd767	0.050742533
69	0xbd2105c5	-0.039312143
70	0xbcce33bc	-0.025171153
71	0xbc0b649a	-0.008507872
72	0xbd5e1bd6	-0.054225765
73	0xbc8f8977	-0.017521603
74	0x3dfbe06f	0.12298667
75	0xbd499fc3	-0.049224626
76	0x3d86e0b3	0.06585827
77	0xbc53961b	-0.012914206
78	0x3d848c59	0.06472082
79	0xbdefa9c9	-0.11702306
80	0x3e05bccc	0.13060302
81	0xbca6aeed	-0.020347083
82	0xbdabf384	-0.08396056
83	0x3d886f90	0.06661904
84	0xbdfd2c97	-0.123620205
85	0xbde2adfe	-0.110683426
86	0xbd44da7c	-0.048059925
87	0xbb86ee78	-0.004117783
88	0x3d8a276b	0.067458
89	0xbd8de568	-0.069285214
90	0x3d32cb83	0.043651115
91	0x3d883657	0.066509895
92	0x3b064b38	0.0020491611
93	0x3dcb3675	0.09922496
94	0x3dbe2c96	0.09285848
95	0x3cbe65c3	0.023241883
96	0x3df2b45a	0.118508056
97	0xbdba717b	-0.09103676
98	0xbd4e7c85	-0.05041172
99	0x3d8e5dcb	0.06951483
100	0xbd4b45b8	-0.049627036
101	0xbd740e48	-0.059583932
102	0x3d171ba8	0.03689161
103	0x3d08cf7b	0.033400994
104	0xbdd752d4	-0.10513845
105	0xbd0936f2	-0.033499666
106	0xbe06eec7	-0.13177024
107	0xbd2103de	-0.03931033
108	0x3d4ae263	0.049532305
109	0xbdc39bbc	-0.09551188
110	0x3dd4b364	0.103857785
111	0x3e023d7e	0.1271877
112	0x3dda5504	0.10660747
113	0xbd8d2bc7	-0.068931155
114	0x3d0558c3	0.032555353
115	0x3d65f51a	0.05614195
116	0xbd363bcf	-0.04449063
117	0xbd9245e1	-0.071422346
118	0xbc3d15b0	-0.011540815
119	0xbc57f440	-0.013180792
120	0x3d882474	0.06647578
121	0x3ce9616a	0.028488833
122	0xbdd3124e	-0.10306226
123	0x3cf67ef3	0.030089831
124	0xbdaf601a	-0.08563252
125	0x3dd18dcd	0.102321245
126	0x3ddc156d	0.10746274
127	0xbd30eee3	-0.04319657
128	0x3bc8b881	0.00612551
129	0xbd85a4bd	-0.06525562
130	0x3d9c33be	0.076270565
131	0xbd1ee449	-0.03879193
132	0x3d32eddf	0.043683883
133	0xbd3ddd2d	-0.046353508
134	0x3ce2700c	0.027641319
135	0x3dafc065	0.08581618
136	0x3dcc1e70	0.09966743
137	0x3da41c15	0.08013169
138	0xbd9eafc8	-0.07748371
139	0x3d883fbe	0.06652783
140	0x3db7fe95	0.089841045
141	0x3cf3ddf0	0.029768914
142	0x3cf54121	0.029938282
143	0x3ce132a2	0.027489964
144	0xbcf6238d	-0.030046249
145	0xbe02d814	-0.1277774
146	0x3dfc6bc9	0.12325246
147	0xbc0c63e9	-0.008568742
148	0x3d9e33e9	0.07724745
149	0x3dc854a1	0.09781767
150	0xbc3edab4	-0.011648823
151	0xbdec70cc	-0.11544952
152	0x3c3ef09b	0.0116540445
153	0x3caf29ea	0.02138229
154	0x3d610e9a	0.054945566
155	0x3d886ae1	0.066610105
156	0x3c834bb4	0.016027309
157	0xbd8d24db	-0.06891795
158	0x3d804b4d	0.062643625
159	0xbd8b2762	-0.06794621
160	0x3d52b599	0.051442716
161	0x3d7437a5	0.05962338
162	0xbd10b32f	-0.035327133
163	0xbc7f8eca	-0.015598008
164	0xbd63b2c4	-0.055590406
165	0xbdcfa94c	-0.10139713
166	0xbcbb4046	-0.022857796
167	0xbd729d28	-0.059231907
168	0xbd358ce6	-0.044323824
169	0xbd952723	-0.07282855
170	0xbddab23e	-0.10678528
171	0x3daa9d96	0.083308384
172	0x3d1a6587	0.03769448
173	0x3dae1b8b	0.08501347
174	0xbe04af72	-0.12957552
175	0x3d874556	0.06605022
176	0xbd2b39f5	-0.04180332
177	0xbdf74824	-0.120743066
178	0x3d86fc05	0.06591038
179	0xbce003fb	-0.027345648
180	0xbdc4423b	-0.09582945
181	0xbb8af0c5	-0.0042401277
182	0xbc30c300	-0.010788679
183	0x3cc9330f	0.02456048
184	0xbb7d3671	-0.0038637186
185	0x3dcbe97a	0.099566415
186	0xbdb0a869	-0.08625872
187	0x3bfb6bdf	0.0076727713
188	0xbb837fa5	-0.004013019
189	0xbd067ad1	-0.03283197
190	0xbd72aab5	-0.05924483
191	0xbd00ca6b	-0.03144304
192	0xbc9bc769	-0.019015985
193	0x3db5fdee	0.08886324
194	0x3db0aab3	0.08626308
195	0xbcbcfd08	-0.023069873
196	0x3d1ccf91	0.03828389
197	0x3d1feb11	0.039042536
198	0xbd6ae278	-0.057344884
199	0xbda1de61	-0.079037435
200	0x3d5a11df	0.0532397
201	0xbaf2b3ed	-0.0018516757
202	0xbd98d3aa	-0.07462247
203	0x3d9714c5	0.07377008
204	0xbe0459a3	-0.12924819
205	0xbdc73cc9	-0.09728391
206	0x3d7cd5b1	0.06172723
207	0x3cea3f78	0.028594717
208	0xbd125712	-0.035727568
209	0x3bf07e38	0.007339265
210	0x3d64b6b9	0.05583832
211	0x3daa8ae6	0.08327274
212	0xbd8f77bf	-0.07005262
213	0xbcaacae4	-0.020848699
214	0xbd1c6329	-0.038180504
215	0x3c8fc97a	0.017552126
216	0x3dd5641b	0.10419484
217	0xbd768314	-0.0601836
218	0x3d9b1573	0.075724505
219	0xbd07b528	-0.03313175
220	0x3dcff91f	0.10154938
221	0x3da6948e	0.08133803
222	0x3cc7a64e	0.024371292
223	0x3d84465c	0.064587325
224	0xbd949d09	-0.072565146
225	0xbc282a39	-0.010263973
226	0xbda8633e	-0.08222054
227	0xbd911a12	-0.07085051
228	0x3d229ec4	0.039702192
229	0x3da61376	0.08109181
230	0xbc48c60d	-0.01225425
231	0xbd102759	-0.035193775
232	0xbb99da6f	-0.0046952288
233	0xbd0fb77c	-0.035087094
234	0xbcde3cef	-0.027128665
235	0x3dd0e6f6	0.10200302
236	0xbd5f369f	-0.05449545
237	0xbdd66409	-0.10468299
238	0x3dd3b008	0.1033631
239	0x3d567c1b	0.05236445
240	0xbba528b2	-0.0050402516
241	0xbd2741ec	-0.040834352
242	0xbdca4738	-0.09876865
243	0xbcc05fa8	-0.023483112
244	0xbdc8679e	-0.097853884
245	0xbdf86082	-0.121277824
246	0xbd9beee5	-0.07613925
247	0xbd0c9aa5	-0.034327168
248	0xbcc30b46	-0.023809087
249	0x3dafad84	0.08578017
250	0xbabbe709	-0.0014335822
251	0x3d389041	0.045059446
252	0xbd995a8c	-0.074879736
253	0xbdd44a81	-0.10365773
254	0xbd5aefbe	-0.053451292
255	0x3b98b324	0.004660027

conv2.0.bias f4 [16]
0	0x3db7dc02	0.0897751
1	0xbdba4e84	-0.09097007
2	0xbdb87bfb	-0.090080224
3	0x3dbf48ac	0.09340033
4	0xbd8c0ca4	-0.068383485
5	0x3bfcc053	0.0077133565
6	0x3cc52f55	0.024070421
7	0x3d1559fd	0.036462773
8	0xbd5f5ee6	-0.05453386
9	0x3ddd4126	0.10803442
10	0x3d1433eb	0.036182325
11	0xbc57b0ab	-0.0131646795
12	0x3dcf7a91	0.101307996
13	0x3c39e29a	0.01134553
14	0xbbb85305	-0.005625131
15	0xbd1ceb2e	-0.038310222

conv3.0.weight f4 [32, 16, 3, 3]
0	0x3e04ce53	0.12969331
1	0xbd3fcdc7	-0.046827104
2	0x3c9a7249	0.018853324
3	0xbc2f1555	-0.010686238
4	0x3d3c6339	0.045993064
5	0x3ccb1143	0.024788504
6	0x3dae9935	0.08525316
7	0x3c277f96	0.01022329
8	0x3ce7c3dc	0.028291635
9	0x3d68af55	0.056807835
10	0xbd0c45d2	-0.034246273
11	0xbcd0cf66	-0.02548952
12	0xbaecbb93	-0.0018061273
13	0x3da9c453	0.08289399
14	0xbd1118f4	-0.035424188
15	0x3cb6f6e7	0.02233453
16	0x3c5dabd9	0.013529741
17	0xbd8bae1c	-0.06820318
18	0x3d9a3a46	0.07530646
19	0x3bf48925	0.007462638
20	0x39e3e49e	0.00043467147
21	0xbda94cb1	-0.08266581
22	0x3c107519	0.008816981
23	0xbd3b57ac	-0.045737907
24	0xbd91d408	-0.0712052
25	0xbcf1a797	-0.029498858
26	0x3d87c929	0.06630165
27	0x3ddaab0a	0.10677154
28	0xbdc4f367	-0.09616738
29	0x3cab61ea	0.020920713
30	0x3ce36b87	0.027761234
31	0x3cda40a2	0.026642147
32	0x3da33f5c	0.07971069
33	0x3c5c1a69	0.013434031
34	0x3d4f2c52	0.050579377
35	0xbd90a5ba	-0.0706286
36	0xbbf26bce	-0.007398105
37	0x3d3b9237	0.04579374
38	0xbd43df71	-0.047820512
39	0xbdd3496f	-0.10316741
40	0xbd7bdad0	-0.061487973
41	0xbd0e6a8f	-0.03476959
42	0xbd7de80f	-0.061988886
43	0x3ca65726	0.020305227
44	0xbc5ad7de	-0.013357131
45	0xbd2fdc7d	-0.042934883
46	0x3c9c51b3	0.019081926
47	0x3d2c9caf	0.042141613
48	0x3c49d3ab	0.012318532
49	0x3d440a33	0.04786129
50	0x3d887289	0.06662471
51	0x3d8e657d	0.06952951
52	0x3d6de856	0.0580829
53	0xbc9776fe	-0.018489357
54	0x3ceb6857	0.028736277
55	0x3d1bb15e	0.038010947
56	0x3d9b9be1	0.07598091
57	0xbd522327	-0.051303055
58	0xbd49593b	-0.049157362
59	0x3b08f648	0.0020898748
60	0xbd0094da	-0.031391956
61	0x3d44327e	0.047899716
62	0x3d832da4	0.0640519
63	0x3b8e1e7b	0.0043371296
64	0xbcf46fd8	-0.029838488
65	0xbda82d33	-0.08211746
66	0xbd8150f0	-0.06314266
67	0x3b53afa3	0.0032300733
68	0xbcb078c8	-0.021541968
69	0xbc33fcae	-0.0109855365
70	0xbd06c04a	-0.032898225
71	0x3da3911b	0.07986661
72	0x3d1335f2	0.035940118
73	0x3c956e16	0.01824097
74	0xbdc25253	-0.09488358
75	0xbbf986cd	-0.0076149465
76	0xbd935572	-0.07194032
77	0x3d33e6ab	0.043921154
78	0x3caabf9d	0.020843321
79	0xbd1f4c1c	-0.038890943
80	0xbd4010d0	-0.046891034
81	0xbd2292be	-0.039690726
82	0x3cacb3dd	0.02108186
83	0xbba8ff0c	-0.005157357
84	0x3d1d9166	0.03846874
85	0xbbe617fc	-0.007021902
86	0x3d428148	0.047486573
87	0xbdb57f4e	-0.08862172
88	0x3c0bfc4a	0.008544037
89	0x3cb226ae	0.02174696
90	0xbcc08f74	-0.023505904
91	0x3d7bbe6c	0.061460897
92	0x3d230e19	0.039808366
93	0xbd5f62af	-0.05453747
94	0x3d022bc5	0.031780023
95	0xbd2c76e9	-0.04210559
96	0x3aa57d51	0.0012625848
97	0xbb05141a	-0.002030617
98	0xbc46196e	-0.012091024
99	0x3dd2e30b	0.10297211
100	0xbd3fa85f	-0.04679143
101	0x3d5dccdc	0.054150447
102	0xbce1f21a	-0.027581263
103	0x3d2c47f3	0.042060804
104	0x3d96a41a	0.07355519
105	0xbd89943d	-0.06717727
106	0x3d3d9d0c	0.04629235
107	0x3cd824bc	0.026384704
108	0xbd870ffe	-0.06594847
109	0xbdad43f8	-0.0846023
110	0xbd3f2946	-0.04667022
111	0xbd7991ad	-0.060929943
112	0x3cd0e049	0.025497572
113	0xbc5ecaa6	-0.01359812
114	0x3c4f36fa	0.012647385
115	0xbd9a34ba	-0.07529588
116	0xbd4ac268	-0.049501806
117	0xbdac7529	-0.08420784
118	0x3bb5a1e7	0.005542982
119	0x3d2ceaa5	0.042215962
120	0xbc3b7909	-0.011442431
121	0xbd189905	-0.037255306
122	0x3dbf56c7	0.09342723
123	0xbce654ce	-0.02811661
124	0xbd8d84cb	-0.06910094
125	0xbda8cc0f	-0.08242046
126	0x3d56374d	0.052298833
127	0xbd34f887	-0.044182327
128	0x3d8654e8	0.06559163
129	0x3d504363	0.050845515
130	0xbd305c25	-0.043056626
131	0x3d73338b	0.059375327
132	0xbd392f41	-0.04521108
133	0x3d5ca576	0.053868733
134	0x3ae322f0	0.0017329138
135	0x3d41d5ae	0.04732292
136	0x3d2528bb	0.040322047
137	0x3d2266cb	0.039648812
138	0xbced65ab	-0.028979143
139	0x3cf70f70	0.030158728
140	0x3d26d548	0.040730745
141	0xbd83b8ee	-0.06431757
142	0x3d2004c3	0.03906704
143	0xbc56646b	-0.013085465
144	0x3d8c735a	0.06857939
145	0xbc7e8944	-0.015535656
146	0x3da57df7	0.080806665
147	0xbc71f1f4	-0.014767159
148	0x3d4c80f4	0.049927667
149	0xbca6420a	-0.020295162
150	0x3cb9fff0	0.022705048
151	0x3d6d42ae	0.05792492
152	0x3c5b4642	0.01338345
153	0xbd79bf9d	-0.060973752
154	0x3c94fb3a	0.0181862
155	0x3de1a5c9	0.11017949
156	0xbd14b078	-0.036301106
157	0xbd9f765a	-0.07786246
158	0x3da72e9a	0.081631854
159	0xbd2b248f	-0.041782912
160	0x3d5586b4	0.052130416
161	0x3cc8f82a	0.024532396
162	0x3d406ce9	0.046978865
163	0xbd1efaff	-0.038813587
164	0xbb018b90	-0.0019767024
165	0x3b5ac9ca	0.0033384436
166	0x3d3659dc	0.04451929
167	0xbc285213	-0.010273474
168	0xbd69b4d1	-0.057057206
169	0xbc92379b	-0.01784878
170	0x3c60cfbd	0.013721404
171	0x3d9ed558	0.07755536
172	0x3d5fd1fd	0.05464362
173	0xbd32e577	-0.043675866
174	0xbcf2cfa1	-0.02964002
175	0xbda8f100	-0.08249092
176	0xbd596bed	-0.05308144
177	0xbbbdd2bc	-0.0057929438
178	0x3bdd0311	0.0067447503
179	0x3d958702	0.07301141
180	0xbd3a1d30	-0.04543799
181	0xbd306e77	-0.043074097
182	0xbda654fb	-0.081216775
183	0x3da7c68d	0.081921674
184	0x3d5734d1	0.052540604
185	0xbcda005e	-0.026611503
186	0xba376f78	-0.0006997506
187	0x3ac8ee01	0.001532972
188	0x3cc8dc87	0.024519218
189	0xbcfdae24	-0.030966826
190	0x3c99d04d	0.018776083
191	0xbd8386d8	-0.06422204
192	0xbdce7e71	-0.100827105
193	0x3d89d55e	0.0673015
194	0x3d3b17aa	0.045676865
195	0xbd63bb68	-0.055598646
196	0x3ccde1ce	0.025132086
197	0xbd40b2ac	-0.047045395
198	0xbccda02f	-0.025100796
199	0x3c795308	0.01521755
200	0x3d17a7ca	0.03702525
201	0x3d4e048d	0.05029731
202	0x3d078f4a	0.033095635
203	0x3d010343	0.03149725
204	0x3c78fd47	0.015197105
205	0xbc07f071	-0.008297072
206	0xbce49165	-0.02790136
207	0xbb513576	-0.0031922734
208	0xbd57709c	-0.052597627
209	0x3d8a48d4	0.06752172
210	0x3cd192dd	0.025582725
211	0xbbb4c334	-0.005516434
212	0xbca9945f	-0.020700632
213	0x3d935b89	0.07195193
214	0xbd1f8bb7	-0.0389516
215	0xbd1a9b10	-0.037745535
216	0xbc713a49	-0.014723369
217	0x3cd679df	0.02618116
218	0x3d953380	0.072852135
219	0xbcd899a6	-0.026440453
220	0xbd3d8bf2	-0.04627604
221	0xbb33dc21	-0.002744444
222	0xbd28c99b	-0.04120789
223	0xbcde2bc1	-0.027120473
224	0xbdb080dc	-0.08618328
225	0xbd1e54b4	-0.038654998
226	0xbdc3411f	-0.09533905
227	0xbdb06aa4	-0.0861409
228	0x3d8d57fe	0.06901549
229	0x3d84bb66	0.06481056
230	0x3d20b305	0.039233226
231	0x3d65e32f	0.056124862
232	0x3cf05520	0.029337466
233	0x3c461f69	0.01209245
234	0x3c8193f4	0.01581762
235	0xbc05a1f9	-0.008156293
236	0x3ced7439	0.028986083
237	0xbcade24a	-0.021226067
238	0x3d282a43	0.04105593
239	0xbc6d805c	-0.014495935
240	0xbd4c6b18	-0.04990682
241	0xba7c1a5b	-0.00096169644
242	0x3d9f3e46	0.077755496
243	0xbda08cf3	-0.07839384
244	0xbdb35a3e	-0.08757447
245	0x3d7d96e5	0.061911482
246	0xbd0504c8	-0.032475263
247	0xbb020cdf	-0.0019844098
248	0x3d85ed12	0.06539358
249	0x3d77fb42	0.060542352
250	0xbc87b7d0	-0.01656714
251	0xbcd1df2a	-0.025619108
252	0xbcdfa043	-0.027298098
253	0x3d8112f1	0.06302441
254	0x3d0377b3	0.032096576
255	0xbdb080e9	-0.08618338

conv3.0.bias f4 [32]
0	0x3d37ef5c	0.044906005
1	0x3c047a0a	0.008085737
2	0xbc06b4b4	-0.008221794
3	0x3d91ef87	0.07125764
4	0x3caa5189	0.020790832
5	0x3d4f2ed2	0.05058176
6	0xbda45b24	-0.08025196
7	0xbda44099	-0.080201335
8	0xbd1fb7f8	-0.038993806
9	0xbcf5c14e	-0.029999401
10	0x3d7713c1	0.060321573
11	0xbd38d773	-0.045127343
12	0xbd742414	-0.05960472
13	0xbd879ef0	-0.06622112
14	0x3ba40690	0.005005665
15	0x3d807001	0.06271363
16	0xbd617d2e	-0.05505102
17	0x3d90eba3	0.07076194
18	0xbd940a98	-0.07228583
19	0xbd6ab3f4	-0.057300523
20	0x3d87bb57	0.06627529
21	0xbcd78b48	-0.026311532
22	0xbd5e9c3b	-0.05434821
23	0x3d19eb40	0.037577868
24	0x3d13ebf4	0.036113694
25	0xbda20112	-0.079103604
26	0xbd89f3eb	-0.06735977
27	0xbd6d88de	-0.057991855
28	0x3d680ab2	0.056650825
29	0x3c9a5fe0	0.018844545
30	0x3d0ed6bb	0.03487275
31	0xbce4a92c	-0.027912699

fc1.weight f4 [64, 288]
0	0x3c884e9a	0.016639043
1	0xbd343acb	-0.04400138
2	0x3de3ae41	0.11117221
3	0xbcd7c8dc	-0.026340894
4	0x3cf4e259	0.029893087
5	0x3db7825b	0.0896041
6	0x3d1e6982	0.03867484
7	0x3cb9f4da	0.022699762
8	0x3aabd0de	0.0013108512
9	0x3d81eba5	0.06343774
10	0x3add2893	0.0016873054
11	0xbd63c97d	-0.055612076
12	0x3cd45ebf	0.025924085
13	0x3cf0cd9d	0.029394919
14	0x3cdf35c8	0.027247325
15	0x3d2ed8b3	0.04268713
16	0xbcf2a462	-0.0296194
17	0xbcd50d1c	-0.026007228
18	0x3d386da9	0.045026455
19	0x3da1acc7	0.07894283
20	0x3d837d53	0.06420388
21	0xbd244749	-0.040107045
22	0x3c6de281	0.014519335
23	0x3ad480ca	0.0016212699
24	0x3d91fb06	0.07127957
25	0xbd305355	-0.04304822
26	0xbd2bfc7f	-0.041988846
27	0x3beb4907	0.0071803364
28	0x3c7894d0	0.015172198
29	0x3d1bcc76	0.038036786
30	0xbba19936	-0.0049315942
31	0xbd2ee2ee	-0.042696886
32	0x3d65767b	0.056021195
33	0x3d694af4	0.056956246
34	0xbd2df82c	-0.042473003
35	0xbb199d0b	-0.0023439552
36	0xbc863c9b	-0.01638632
37	0x3bab2392	0.005222746
38	0xbc1beda3	-0.009517106
39	0xbd4b5e89	-0.049650703
40	0x3d14d838	0.036339015
41	0x3d24a700	0.040198326
42	0x3d94059c	0.072276324
43	0xb9b32d77	-0.00034175414
44	0x3baa3c8a	0.005195205
45	0x3c8f4318	0.017488047
46	0x3d857698	0.065167606
47	0x3d0e3909	0.03472236
48	0xbd1c7fb8	-0.03820774
49	0x3d58d9ae	0.05294197
50	0xbd0c6855	-0.034279186
51	0xbc0a8c27	-0.0084562665
52	0xbc8387e6	-0.016056012
53	0x3d229593	0.039693426
54	0xbc611e2d	-0.013740105
55	0x3da6c7e6	0.08143596
56	0xbb997969	-0.0046836627
57	0x3b991530	0.004671715
58	0xbca6e87f	-0.020374535
59	0xbd117cdc	-0.035519466
60	0xbcab4740	-0.020907998
61	0x3bfa3f54	0.007636944
62	0x3d26ae8e	0.040693812
63	0xbd4c68a7	-0.04990449
64	0x3c9378fd	0.018002028
65	0x3b4a1426	0.0030834763
66	0xbb9a345f	-0.00470595
67	0xbc512174	-0.0127643235
68	0x3d606022	0.05477918
69	0xbc260f67	-0.010135508
70	0xbd0a8209	-0.033815417
71	0xbcd2bc32	-0.025724504
72	0x3d01c439	0.031681273
73	0xbc4e2088	-0.012580998
74	0x3d78262f	0.06058329
75	0xbce34f7d	-0.027747864
76	0xbd30b0ad	-0.04313724
77	0xbd40b65b	-0.047048908
78	0x3cc0f0df	0.023552356
79	0x3d56651b	0.052342515
80	0xbd23553b	-0.039876204
81	0xbd736a22	-0.059427388
82	0xbd5a762a	-0.053335346
83	0xbc3add7e	-0.011405347
84	0x3d0502a8	0.032473236
85	0x3d0358e3	0.03206719
86	0xbac1ee45	-0.0014795741
87	0xbc394c14	-0.011309642
88	0xbd11d0c8	-0.0355995
89	0xbcfb1264	-0.030648418
90	0x3d8dd967	0.06926232
91	0xbd0b316f	-0.03398269
92	0xbc1bdc58	-0.009512983
93	0xbd05c65e	-0.03265988
94	0x3ce9603b	0.02848827
95	0x3d26f3ea	0.04075996
96	0x3d0861ff	0.03329658
97	0x3d23cdc2	0.039991148
98	0x3c5f8c37	0.01364427
99	0xbce26c61	-0.02763957
100	0xbd17c9e2	-0.037057765
101	0xbd3c38a6	-0.04595246
102	0x3cf9230f	0.030412225
103	0xbaf95663	-0.0019022938
104	0x3c1b0809	0.009462365
105	0xbbaa1d2d	-0.0051914663
106	0xbcfeeed2	-0.031119738
107	0x3c1c79c8	0.009550519
108	0xbc8e9c49	-0.017408507
109	0xbbb02154	-0.005375067
110	0xbb4cba50	-0.003123898
111	0xbd48519c	-0.048905954
112	0x3c26f166	0.01018939
113	0xbc226d1a	-0.009913707
114	0x3cb92df9	0.02260493
115	0x3bef7e2a	0.007308741
116	0x3da8454d	0.08216343
117	0xbc4637cb	-0.012098263
118	0xbc49c20a	-0.012314329
119	0xbcbcfb9d	-0.023069197
120	0x3d958dc2	0.07302429
121	0xbc90f096	-0.017692845
122	0xbc800092	-0.015625272
123	0x3d6e762b	0.058218163
124	0xbce02b63	-0.027364438
125	0x3d24e8ae	0.040260963
126	0x3d0e5de8	0.034757525
127	0xbd32c109	-0.043641124
128	0xbcb48700	-0.02203703
129	0xbcdb07fb	-0.026737204
130	0x3deb7189	0.114962645
131	0x3d9fa66c	0.07795414
132	0xbc833d96	-0.016020577
133	0x3d376a1b	0.044778924
134	0xbdba4b36	-0.090963766
135	0x3cb5f3cd	0.02221098
136	0x3d832895	0.06404225
137	0x3c74fff3	0.014953601
138	0x3d4a8096	0.049439035
139	0xbb229f9f	-0.002481438
140	0x3bc40457	0.0059819627
141	0x3c9f4b04	0.01944495
142	0x3c181b4f	0.009283855
143	0x3d3e5c89	0.046474967
144	0x3dcad19e	0.099032626
145	0x3d8d3cac	0.06896338
146	0xbd226006	-0.039642356
147	0xbd3b5c49	-0.045742307
148	0x3d5621bb	0.05227826
149	0xbd3d7b12	-0.046259947
150	0x3d7a500c	0.061111495
151	0xbc0aea73	-0.008478749
152	0xbd6b211c	-0.057404622
153	0x3d7a3b78	0.06109187
154	0x3bd97514	0.0066362713
155	0x3cbba6d1	0.022906693
156	0x3d386c3b	0.04502509
157	0xbd2936cf	-0.041312035
158	0xbd037be3	-0.03210057
159	0x3c6fcec5	0.0146367
160	0x3c687faf	0.014190598
161	0xbd69619b	-0.05697785
162	0x3c9de15e	0.019272503
163	0xbbaba8bd	-0.005238621
164	0x3ce93876	0.028469305
165	0x3ba4123d	0.005007057
166	0xbd92bf21	-0.07165361
167	0xbc626a04	-0.013819221
168	0x3d808842	0.06275989
169	0x3d3344f4	0.04376693
170	0x3d3e0d91	0.046399657
171	0xbbc8a967	-0.00612371
172	0xbd1bc4a7	-0.03802934
173	0x3d70cca8	0.058788925
174	0xbc9d9c17	-0.019239469
175	0xbcd33fe6	-0.025787305
176	0x3d87cb90	0.06630623
177	0xbd118bcd	-0.035533715
178	0x3c8ccdad	0.017187918
179	0xbd672015	-0.05642708
180	0x3cd8f529	0.026484089
181	0x3c1b39fe	0.009474276
182	0xbd169057	-0.036758747
183	0x3cbc4d16	0.022985976
184	0x3d055fa9	0.03256193
185	0xbcf2ad8c	-0.02962377
186	0x3d01f936	0.031731807
187	0x3d4c216a	0.049836554
188	0x3d61d5f7	0.055135693
189	0x3d1c525f	0.038164493
190	0x3c6e7c02	0.014555933
191	0xbcc22d3b	-0.023703208
192	0x3d6646bc	0.0562198
193	0xbcbaf833	-0.022823429
194	0xbc40f9ae	-0.011778278
195	0xbcca2e7e	-0.024680372
196	0xbcaee9ad	-0.02135166
197	0x3d2c3f1b	0.04205237
198	0x3c08f659	0.008359515
199	0x3d8805b7	0.06641715
200	0xbc9e158e	-0.019297387
201	0x3cac74d6	0.021051805
202	0x3cad4ef4	0.021155812
203	0xbd11c035	-0.035583694
204	0x3d60b289	0.054857764
205	0x3b56d20c	0.0032779006
206	0x3cc6d97a	0.024273623
207	0x3ca0c49b	0.019624999
208	0x3b2b83e2	0.0026171138
209	0xbde24e78	-0.11050123
210	0xbd4708e2	-0.048592456
211	0xbd3caf9d	-0.046065915
212	0xbcac9542	-0.021067265
213	0xbc13608e	-0.008995188
214	0x3bdd3bf3	0.0067515313
215	0x3d1e0790	0.03858143
216	0xbc4d9af8	-0.012549154
217	0xbc54fbae	-0.012999458
218	0x3a0de5ac	0.0005412947
219	0x3cb980cb	0.022644421
220	0x3cd42331	0.025895687
221	0x3d06384f	0.032768544
222	0x3cea7162	0.028618518
223	0x3d710650	0.05884391
224	0x3d587ce7	0.05285349
225	0x3d8e36d0	0.069440484
226	0xbd45b9af	-0.048272785
227	0xbd1470d5	-0.036240418
228	0xbc671a14	-0.014105339
229	0x3d44308f	0.04789787
230	0xbd25aab4	-0.040446
231	0x3cc41bc0	0.023939013
232	0xbc99f0d7	-0.0187916
233	0x3a2b3605	0.0006531182
234	0xbd2e757c	-0.04259251
235	0x3cc1ba56	0.023648422
236	0x3c948f3e	0.01813471
237	0x3daf0053	0.08544984
238	0x3d2325a8	0.039830834
239	0x3c83d71a	0.01609378
240	0xbcfd5bbb	-0.03092753
241	0x3d40a590	0.047032893
242	0xbcbcab9a	-0.023031045
243	0x3c274fd1	0.010211901
244	0x3b9eb04b	0.004842793
245	0x3cb05932	0.021526907
246	0x3cde99be	0.02717292
247	0x3c6e3d17	0.014540932
248	0x3cd10c1e	0.025518473
249	0x3b9c088a	0.00476176
250	0x3cbe88de	0.023258623
251	0x3ccefe29	0.025267677
252	0x3b9ae74b	0.0047272793
253	0xbd8baf08	-0.06820494
254	0xbd8aee33	-0.06783714
255	0x3d007123	0.031357896

fc1.bias f4 [64]
0	0xbd0bbe31	-0.034116928
1	0xbc8f9d20	-0.017530978
2	0x3c75af3c	0.014995392
3	0x3a421047	0.0007402938
4	0x3ce6ca49	0.028172629
5	0xbd4252f3	-0.047442388
6	0xbcff18aa	-0.03113969
7	0xbc367089	-0.011135229
8	0xbd296558	-0.041356415
9	0x3d07e03a	0.033172823
10	0xbd68f46e	-0.05687373
11	0x3c8d28f1	0.017231436
12	0x3d3a3c7e	0.045467846
13	0x3c567015	0.013088246
14	0xbd7c739b	-0.061633687
15	0xbce492f2	-0.0279021
16	0xbd2a3118	-0.041550726
17	0x3c99fb94	0.01879672
18	0xbcb0ab5e	-0.02156609
19	0x3d05640f	0.032566126
20	0xbd1290a6	-0.03578248
21	0x3bfe80a1	0.0077667986
22	0x3c5cd2a8	0.013477959
23	0xbcddfb00	-0.027097225
24	0x3d030da6	0.031995438
25	0xbd3640bc	-0.04449533
26	0x3d14653d	0.03622936
27	0x3cfe6f26	0.03105886
28	0xbd331be0	-0.043727756
29	0xbd4521c5	-0.04812791
30	0xbd451777	-0.04811808
31	0xbab594f7	-0.0013853599
32	0x3d5010bf	0.05079722
33	0x3d6af058	0.057358116
34	0x3c807c60	0.015684307
35	0xbbde434b	-0.0067829243
36	0xbd049351	-0.032367054
37	0x39b20f14	0.0003396204
38	0x3a9d49ae	0.0012000108
39	0xbca2f9ab	-0.019894442
40	0x3c47800f	0.012176528
41	0x3ceb41c2	0.02871788
42	0xbcee32eb	-0.029077014
43	0x3b70a0d9	0.0036716966
44	0x3d3b9c1b	0.04580317
45	0x3ccbd2d0	0.024880797
46	0x3c4ef5d1	0.012631849
47	0xbcc96b52	-0.024587307
48	0x3cb17947	0.021664275
49	0x3ccbcb61	0.024877252
50	0xbd341357	-0.043963756
51	0x3d27251e	0.040806882
52	0x3d0f0237	0.03491422
53	0xbcbac128	-0.022797182
54	0xbc88c3dd	-0.016694957
55	0xbd4eca5e	-0.05048596
56	0xbd2eaece	-0.042647175
57	0x3d5d84d9	0.05408177
58	0x3ceb54b3	0.028726911
59	0x3d207407	0.039173152
60	0x3c669fcf	0.014076187
61	0xbd140d8f	-0.036145743
62	0xbcb139f2	-0.021634076
63	0xb98c1ac6	-0.0002672283

fc2.weight f4 [10, 64]
0	0x3d077487	0.033070114
1	0x3d4a6ce4	0.049420252
2	0xbd5bf400	-0.053699493
3	0xbcb53623	-0.022120541
4	0xbd88ed01	-0.0668583
5	0xbdc410c7	-0.095735125
6	0x3db7f063	0.08981397
7	0x3d6b427f	0.057436462
8	0xbce96653	-0.028491175
9	0xbc2caa8b	-0.0105387075
10	0xbd167793	-0.03673513
11	0x3dbe0cf3	0.092798136
12	0x3d96bf27	0.07360678
13	0xbdb4b6b2	-0.08823909
14	0x3daeb41a	0.085304454
15	0xbde7b0d5	-0.11313025
16	0xbd7ad375	-0.061236817
17	0x3c27a0df	0.010231226
18	0xbd52ed2c	-0.051495716
19	0xbc96bd14	-0.018400706
20	0x3db4e67e	0.088330254
21	0x3d3eb32c	0.04655759
22	0xbdcaeb7d	-0.09908197
23	0xbda441c9	-0.0802036
24	0x3bdd2e2a	0.006749888
25	0x3d6c2628	0.057653576
26	0x3d433aea	0.047663607
27	0x3d062dba	0.032758452
28	0x3d99b405	0.07505039
29	0x3dccb1cd	0.0999485
30	0x3d7ab727	0.061209824
31	0xbdd49950	-0.103808045
32	0xbd960319	-0.073248096
33	0x3cdbf9a4	0.026852436
34	0xbde980d8	-0.11401528
35	0xbd05dcc4	-0.03268124
36	0xbbc79893	-0.0060911863
37	0xbd84118d	-0.0644866
38	0x3d4f76e1	0.05065048
39	0x3dc9757f	0.09836864
40	0xbdd7e60f	-0.10541927
41	0x3df6f729	0.12058861
42	0xbdfc335a	-0.12314482
43	0x3d7299bf	0.059228655
44	0xbd5e7967	-0.054314997
45	0x3d6fec52	0.058574982
46	0x3d207201	0.039171223
47	0xbc7f41c5	-0.0155796455
48	0x3e0d643a	0.13807765
49	0xbd8699d8	-0.06572312
50	0xbdf578b2	-0.119859114
51	0xbc98a600	-0.018633842
52	0x3db6d120	0.08926606
53	0x3da4a61f	0.080394976
54	0x3dfa5c88	0.1222468
55	0xbd56d8c4	-0.052452818
56	0xbc7b5e41	-0.015342296
57	0x3da378ba	0.07982011
58	0x3dee98c3	0.11650231
59	0x3c87edc1	0.016592862
60	0xbdb9621b	-0.09051915
61	0x3d8bc1c5	0.06824068
62	0xbdcc9e28	-0.099911034
63	0xbc35ab9c	-0.011088278
64	0x3dcadcfd	0.099054314
65	0xbd7c50a9	-0.06160036
66	0xbc9b0a8b	-0.018925926
67	0xbd537e37	-0.05163404
68	0xbdd6207d	-0.104554154
69	0x3d9d1e51	0.07671798
70	0x3d33f3fa	0.043933846
71	0x3ddeb159	0.1087367
72	0x3d7ad80b	0.06124119
73	0xbb13e5a6	-0.00225673
74	0xbe013f07	-0.126217
75	0xbde975de	-0.113994345
76	0xbcadfc00	-0.021238327
77	0x3e06ffec	0.13183564
78	0x3ba9e696	0.0051849587
79	0x3de7dc65	0.11321334
80	0x3db286d7	0.08717125
81	0x3d6b10d4	0.057389095
82	0x3cfc30b1	0.030784937
83	0x3dd7f424	0.10544613
84	0x3ceaa1bd	0.028641576
85	0x3dfe37b6	0.1241297
86	0xbae5e339	-0.0017539031
87	0x3c72558b	0.014790903
88	0xbd97f9ad	-0.07420669
89	0xbdc59827	-0.096481614
90	0xbc7c0d47	-0.015384025
91	0xbdb16a18	-0.08662814
92	0xbdc2bcee	-0.09508692
93	0x3dfdb745	0.123884715
94	0x3c67f831	0.014158295
95	0x3da9b004	0.082855254
96	0xbddea853	-0.10871949
97	0x3dbe828c	0.093022436
98	0x3c174a76	0.009234061
99	0x3c2879d0	0.010282949
100	0x3d609285	0.054827232
101	0xbdfa883d	-0.12233017
102	0x3e058eae	0.13042709
103	0x3d9b7dee	0.075923786
104	0xbdfc45cb	-0.123179995
105	0xbdcbf417	-0.09958666
106	0xbd6e1357	-0.058123913
107	0xbdd8476b	-0.10560497
108	0x3d1dd476	0.038532697
109	0xbdc0dc3b	-0.09417006
110	0xbdcb4357	-0.099249534
111	0xbe0bf099	-0.13666
112	0x3d531af5	0.05153938
113	0x3d9e9c09	0.07744605
114	0xbdd75448	-0.10514122
115	0xbd384595	-0.044988234
116	0xbde1b6fd	-0.1102123
117	0xbca468ea	-0.020069558
118	0xbdadb83f	-0.08482408
119	0x3cea219c	0.02858048
120	0x3d9adea1	0.07561994
121	0xbd5ab016	-0.053390585
122	0xbd2c1c29	-0.042019043
123	0xbdd5e1d7	-0.10443466
124	0xbdeca5b6	-0.11555044
125	0x3d715944	0.05892302
126	0xbdbb7d36	-0.091547415
127	0x3dea4490	0.114388585
128	0x3d670b5f	0.05640733
129	0x3c81114c	0.015755318
130	0x3d225e47	0.03964069
131	0x3d8a9372	0.06766404
132	0x3decb4c2	0.11557914
133	0xbddb2eac	-0.10702261
134	0x3d12d272	0.035845228
135	0xbcea8506	-0.028627884
136	0xbcf6bf17	-0.030120416
137	0xbd7b3a84	-0.0613351
138	0xbcf65dbb	-0.030073991
139	0xbdc8c4fd	-0.098031975
140	0xbdcb9630	-0.09940755
141	0xbc9a67c5	-0.01884831
142	0x3d42ee84	0.047590747
143	0xbda11e2d	-0.07867084
144	0x3df23342	0.11826183
145	0x3d084d36	0.03327676
146	0xbd249e70	-0.04019016
147	0x3da67abc	0.081288785
148	0xbde61fba	-0.1123652
149	0x3db6c9db	0.089252196
150	0x3d8768ca	0.06611784
151	0xbdb504cb	-0.08838805
152	0x3ce34072	0.02774069
153	0xbd930cfc	-0.07180211
154	0x3dda4750	0.10658133
155	0x3c44781d	0.011991528
156	0x3de6e38e	0.11273871
157	0xbe0369c1	-0.1283331
158	0x3df0189d	0.117234446
159	0x3d985ca6	0.07439546
160	0xbdcf4161	-0.10119892
161	0x3cc026be	0.023455974
162	0xbd87da95	-0.06633488
163	0xbc450740	-0.012025654
164	0xbe054b6a	-0.1301705
165	0x3de5c5e6	0.11219387
166	0xbc674d67	-0.014117575
167	0x3d9cc6e9	0.076551266
168	0x3c48baf6	0.012251606
169	0xbd6ec7a0	-0.058295846
170	0xbd50e03b	-0.050995093
171	0xbd6c283e	-0.057655565
172	0x3c500a1e	0.012697725
173	0xbda7c590	-0.08191979
174	0xbd10117f	-0.035172936
175	0x3d1dcbc9	0.038524423
176	0xbdcade12	-0.09905638
177	0xbd1a2c09	-0.03763965
178	0x3df082b0	0.11743677
179	0xbc84ead3	-0.016225254
180	0x3dd98e12	0.10622801
181	0x3b147479	0.002265243
182	0xbc2ae6e1	-0.010431022
183	0xbdeebe42	-0.116573825
184	0xbddf409f	-0.10900997
185	0x3df26e54	0.1183745
186	0xbc12a226	-0.008949792
187	0x3dd58b88	0.10427004
188	0x3b67e831	0.00353862
189	0xbd8b0b94	-0.06789318
190	0xbc2088ee	-0.009798272
191	0x3d04c841	0.03241754
192	0x3cbd5dba	0.023115981
193	0x3d2a5020	0.04158032
194	0x3d5b911c	0.053605184
195	0x3d5a6411	0.053318087
196	0xbdc98540	-0.098398685
197	0x3ca80b7e	0.020513292
198	0xbb079237	-0.0020686516
199	0x3d45c61c	0.048284635
200	0xbdc13951	-0.0943476
201	0xbdb20983	-0.086932205
202	0xbb81f9c2	-0.003966541
203	0x3cfff69c	0.031245522
204	0x3d8685d5	0.06568495
205	0x3dd5ced3	0.10439839
206	0x3c8bc861	0.017063322
207	0xbdbbd1a2	-0.09170844
208	0x3dec5cd5	0.11541144
209	0x3dd5a558	0.104319274
210	0xbdf8a6b2	-0.121411696
211	0xbdc9c332	-0.09851684
212	0xbdff91ad	-0.12478957
213	0x3dc930cf	0.098237626
214	0xbd569e57	-0.0523971
215	0xbccfcef9	-0.025367247
216	0xbd81b4b6	-0.06333296
217	0xbde01f09	-0.109434195
218	0x3db192bd	0.08670566
219	0xbda7ea11	-0.081989415
220	0x3dd41608	0.103557646
221	0xbdc3d8e5	-0.09562854
222	0xbaa044da	-0.0012227551
223	0xbc178a70	-0.009249315
224	0xbdcc9e48	-0.09991127
225	0x3d079298	0.033098787
226	0xbd776c67	-0.060406115
227	0xbce68c18	-0.028142974
228	0x3e0799d2	0.13242272
229	0xbd6f1146	-0.058366083
230	0x3dbe8396	0.09302442
231	0xbde26049	-0.11053521
232	0xbd27f84b	-0.041008275
233	0xbde43393	-0.111426495
234	0x3dcd87df	0.10035681
235	0x3d83cb01	0.06435204
236	0xbd6e94a1	-0.058247212
237	0x3d3637f2	0.044486947
238	0x3d471e8a	0.04861311
239	0x3e08559c	0.13313907
240	0x3d6e776f	0.05821937
241	0x3cdecf5f	0.027198492
242	0x3d39ab2b	0.045329254
243	0x3c0467a2	0.008081349
244	0xbb9c2898	-0.0047655813
245	0xbdc24e31	-0.0948757
246	0xbc59f79a	-0.013303662
247	0x3e0bc2a8	0.13648474
248	0x3d85c549	0.0653177
249	0x3d45e05e	0.048309676
250	0x3dd05423	0.10172298
251	0x3d788e78	0.060682744
252	0xbded3405	-0.115821876
253	0x3d3139b8	0.043267936
254	0x3d1ef675	0.03880926
255	0x3d290abb	0.04127

fc2.bias f4 [10]
0	0xbcea9d24	-0.028639384
1	0x3c98bf56	0.018645924
2	0x3c9c3657	0.01906888
3	0x3bda23aa	0.0066570835
4	0x3be7b655	0.007071296
5	0x3caacda5	0.020850012
6	0xbd4220a5	-0.047394414
7	0x3d071ed2	0.032988377
8	0xbc2f8071	-0.010711775
9	0x3afcba6b	0.0019281631
