src/border_ml_pipeline/models/20250808_212510.pth (torch, 28256 bytes, 8 tensors)

conv1.weight f4 [8, 3, 5, 5]
-0.058529504 0.10205024 0.09447303 0.10315797 0.083814085 0.036124453 0.102501795 -0.106138416
0.019026047 -0.098213024 0.013318116 0.045980677 -0.0026556135 -0.01796909 0.015190609 0.0032215617
0.060988456 -0.06731504 0.03997709 0.009149811 -0.0014785468 0.056390654 0.08163133 -0.015564334
-0.03708911 0.08667803 -0.016251903 -0.107714206 -0.05420848 0.018680258 0.05281924 0.09669406
0.06450741 0.057779524 -0.045760356 -0.00088128285 0.08154887 -0.064251885 0.032173634 -0.099260144
-0.069181874 0.06887143 -0.07266483 0.040440813 -0.11409571 -0.10414043 0.019619292 0.078287624
-0.10946645 -0.07635905 -0.10049142 0.07799662 0.07906756 0.070300296 0.028454326 0.025844926
-0.120282345 0.02834039 -0.04566611 -0.033548716 0.074371666 0.033825785 0.013130401 -0.04731071
-0.041445382 0.03476644 0.04633501 -0.042216185 0.08241312 0.0763319 -0.09151347 0.043504726
0.005649705 0.0589624 -0.012487385 -0.0063862354 0.09694621 0.060798224 0.04752089 0.05891057
-0.018197076 -0.09388821 0.038368687 -0.057636738 -0.04612572 0.08698513 -0.017870206 -0.07593824
-0.03240354 -0.102998085 -0.08950206 -0.008868393 -0.0677524 -0.015821196 0.1063387 0.05829276
0.0440267 -0.10879448 0.07334126 -0.053180736 -0.023581607 -0.04723134 -0.011363622 0.004460669
0.01935024 0.05758558 0.09468482 -0.051174264 0.008524487 0.002832798 0.09678662 0.04402425
-0.016833164 -0.1013625 -0.015796773 0.060273647 -0.066787966 -0.013070822 0.109796956 -0.062254258
-0.009639214 -0.023011839 -0.10713431 -0.019197162 0.097476214 0.100270785 -0.047361825 0.11967992
0.050805114 -0.04919204 -0.06850696 -0.0936229 -0.07063613 -0.06358562 0.03185099 -0.08688806
-0.044087272 0.021235699 -0.062644936 -0.080232345 -0.1083085 -0.03150497 0.03598127 0.010366498
-0.083445564 -0.016632965 -0.106714025 -0.020252818 0.04130828 0.11018422 0.05540456 -0.0036665462
0.0688643 -0.09320189 0.046840485 -0.014421436 0.02149788 -0.06906871 0.012952573 0.0606234
0.036941238 -0.061129957 -0.11186339 -0.058798816 0.04434868 -0.096140586 0.06037245 0.029473871
-0.010953088 0.0065290565 -0.03628648 0.09087512 0.09818162 0.10035207 -0.10791011 -0.03410735
-0.0868124 -0.06905911 0.00536588 0.045057293 0.05288113 0.09797362 0.10737749 -0.07557187
-0.0037294952 -0.037622437 -0.109603524 0.091385156 -0.10545413 -0.018612156 0.017959543 0.03816113
0.022266526 -0.004067233 0.089301184 -0.029482162 -0.03632814 -0.0063977106 0.05225659 -0.055668782
0.051547326 -0.04213989 -0.07321265 -0.08781415 0.022588858 -0.03424593 -0.00036630835 0.085925944
-0.017025668 0.088472895 -0.00855643 0.035280652 0.096554525 -0.104782164 -0.030628363 0.08387965
0.10817891 0.049115337 0.059509087 0.07707787 0.06256027 0.058752533 0.02889634 -0.10616165
-0.060337722 0.0968415 -0.046915866 0.07040142 -0.04178601 0.033298124 -0.069386505 -0.07268758
0.013755722 -0.037164588 0.072014205 0.09843167 0.07566965 -0.07591738 -0.028246867 -0.06786713
-0.053409547 0.028580239 -0.10056837 -0.07049815 -0.09821869 -0.06164617 0.09713034 0.088166155
-0.0042164824 0.012543485 0.08947809 -0.03917995 -0.044737805 -0.06867347 0.007966302 0.11071989
00000000: a2bc 6fbd b7ff d03d 137b c13d 7c44 d33d
00000010: b8a6 ab3d 3cf7 133d 76ec d13d 195f d9bd
00000020: 83dc 9b3c e923 c9bd 3a34 5a3c 3c56 3c3d
00000030: cd09 2ebb ea33 93bc 08e2 783c d620 533b
00000040: 08cf 793d 78dc 89bd 04bf 233d 17e9 153c
00000050: cccb c1ba e3f9 663d 542e a73d 8c01 7fbc
00000060: c0ea 17bd 4084 b13d b622 85bc 4499 dcbd
00000070: b609 5ebd 5707 993c fd58 583d 8907 c63d
00000080: 761c 843d 39aa 6c3d 366f 3bbd e405 67ba
00000090: 1803 a73d 7e96 83bd 80c8 033d e748 cbbd
000000a0: 3aaf 8dbd 770c 8d3d 4cd1 94bd 44a5 253d
000000b0: 03ab e9bd 9447 d5bd a3b8 a03c 4355 a03d
000000c0: f22f e0bd 2262 9cbd 72ce cdbd b1bc 9f3d
000000d0: 2cee a13d 9af9 8f3d 0c19 e93c bdb8 d33c
000000e0: 9756 f6bd 1b2a e83c 630c 3bbd 616a 09bd
000000f0: 2c50 983d e88c 0a3d e520 573c e0c8 41bd
00000100: a2c2 29bd 4167 0e3d c8c9 3d3d e1ea 2cbd
00000110: 36c8 a83d e653 9c3d 6a6b bbbd 0332 323d
00000120: 2921 b93b 8f82 713d e497 4cbc a043 d1bb
00000130: bc8b c63d 8f07 793d 44a5 423d 364c 713d
00000140: 0912 95bc 7648 c0bd 7c28 1d3d 8014 6cbd
00000150: 53ee 3cbd 4325 b23d 8a64 92bc 8285 9bbd
00000160: 93b9 04bd a9f0 d2bd db4c b7bd bc4c 11bc
00000170: c5c1 8abd 749b 81bc 1bc8 d93d 64c4 6e3d
00000180: 5755 343d a4cf debd f133 963d 0bd4 59bd
00000190: 372e c1bc a675 41bd 7c2e 3abc ce2a 923b
000001a0: 6584 9e3c dbde 6b3d 1dea c13d 1b9c 51bd
000001b0: 4aaa 0b3c 77a6 393b 1038 c63d c652 343d
000001c0: b4e5 89bc 2497 cfbd 3c68 81bc 80e1 763d
000001d0: 21c8 88bd 0027 56bc 3add e03d 52fe 7ebd
000001e0: cbed 1dbc 5383 bcbc 3c69 dbbd 5e43 9dbc
000001f0: 9ca1 c73d c55a cd3d 79fe 41bd bf1a f53d
00000200: 0619 503d 987d 49bd 614d 8cbd 5dbd bfbd
00000210: ada9 90bd 2d39 82bd 2f76 023d 5ef2 b1bd
00000220: db94 34bd 7df6 ad3c fd4b 80bd db50 a4bd
00000230: d9d0 ddbd 5b0b 01bd 1961 133d 3ed8 293c
00000240: 82e5 aabd db41 88bc e28c dabd 3de9 a5bc
00000250: df32 293d 44a8 e13d e4ef 623d 704a 70bb
00000260: ba08 8d3d a2e0 bebd cfdb 3f3d e347 6cbc
00000270: 521c b03c e573 8dbd 0737 543c 3e50 783d
00000280: b24f 173d 6863 7abd a218 e5bd 07d7 70bd
00000290: f6a6 353d 5be5 c4bd 1a49 773d 3073 f13c
000002a0: 9574 33bc b2f1 d53b 22a1 14bd bc1c ba3d
000002b0: 7213 c93d 6385 cd3d faff dcbd 26b4 0bbd
000002c0: b3ca b1bd dd6e 8dbd 44d4 af3b ff8d 383d
000002d0: e299 583d 65a6 c83d bbe8 db3d 6dc5 9abd
000002e0: 8c6a 74bb fc19 1abd d077 e0bd 2428 bb3d
000002f0: 56f8 d7bd 8578 98bc e41f 933c d84e 1c3d
00000300: 4a68 b63c 6c46 85bb 8ae3 b63d 9384 f1bc
00000310: d1cc 14bd e3a3 d1bb 020b 563d f304 64bd
00000320: 4a23 533d e19a 2cbd 84f0 95bd e8d7 b3bd
00000330: 450c b93c 7645 0cbd 130d c0b9 f1f9 af3d
00000340: 6a79 8bbc 4731 b53d 4530 0cbc 7282 103d
00000350: 61be c53d 0898 d6bd 55e8 fabc 18c9 ab3d
00000360: e88c dd3d 2a2d 493d cdbf 733d 01db 9d3d
00000370: 991f 803d 7fa6 703d 04b8 ec3c 476b d9bd
00000380: b024 77bd d654 c63d da2a 40bd 9f2e 903d
00000390: cf27 2bbd 9d63 083d 831a 8ebd 3add 94bd
000003a0: ae5f 613c e539 18bd 2f7c 933d 8b96 c93d
000003b0: b1f8 9a3d 927a 9bbd f965 e7bc ecfd 8abd
000003c0: f8c3 5abd 1b21 ea3c caf6 cdbd 5661 90bd
000003d0: e126 c9bd b280 7cbd 46ec c63d 7590 b43d
000003e0: 6b2a 8abb 3083 4d3c 4a40 b73d 287b 20bd
000003f0: fd3e 37bd ada4 8cbd 1885 023c 1cc1 e23d

conv1.bias f4 [8]
0.044961095 -0.15027088 0.06751083 0.48332298 0.028648173 -0.28247777 -0.13807872 -0.24249023
00000000: 2029 383d 9ce0 19be 1e43 8a3d 1c76 f73e
00000010: 93af ea3c eda0 90be 8264 0dbe 5c4f 78be

conv2.weight f4 [16, 8, 5, 5]
-0.036678676 -0.014399198 0.008931136 -0.01653336 -0.045345332 0.05413862 -0.035910156 -0.034531828
-0.016706074 -0.031277683 0.024314009 0.0064619207 0.06481784 0.026124168 0.04615019 0.062771365
-0.049223144 0.055998806 -0.026547786 0.05805778 -0.05188659 -0.0016627333 0.009687028 -0.010749278
-0.011307793 -0.036695853 0.056441106 0.07659882 -0.006620979 0.04633523 0.048818134 0.0055365856
-0.018746695 0.023710802 0.019341255 0.06467827 0.01102117 0.05622348 0.053370647 -0.051897857
-0.021531887 0.025506511 0.06986944 -0.02274648 -0.03198102 -0.026376197 0.057829212 0.03989457
-0.019898275 0.03473001 -0.026839871 -0.043711055 0.068071224 0.055497993 0.039394103 -0.013777558
0.057368673 -0.029843766 0.076162115 -0.020790135 0.032872923 0.044969745 -0.06420374 0.07149204
-0.0057296683 -0.06383663 -0.02887585 -0.047286253 -0.01856051 -0.034615315 -0.037662312 0.005697911
-0.045989376 0.039209086 0.03178784 -0.030744446 -0.0076898555 -0.07725794 -0.04438687 -0.012961676
0.009987184 -5.030044e-05 -0.08083982 0.06609344 0.019887589 0.045824572 -0.05648186 -0.07101183
0.0015644019 0.07227414 0.061287094 0.016549358 0.037879225 0.021246325 -0.017561588 0.04906902
0.023856532 0.018353242 -0.036237918 0.05343996 0.034884047 0.06563759 0.0062037585 0.057287984
-0.042974375 -0.035281282 -0.029079894 0.03134521 -0.043009844 0.033647366 0.04999849 -0.029559331
-0.009980326 0.03626465 0.059531517 0.055578962 0.05267121 -0.0072461623 0.041119244 0.041397437
-0.034063857 -0.050921608 0.013700795 0.05748168 -0.04746208 -0.013553952 0.01859735 -0.0030783785
0.011767729 -0.046284847 -0.01742515 -0.04409195 -0.022459611 -0.04425767 0.06361929 -0.014326877
0.024852516 -0.07083331 -0.07348142 0.07222198 0.012210765 -0.049626764 0.015503141 0.057944972
-0.015948651 0.072001584 0.007046074 -0.04562341 0.040403318 0.04918282 -0.01503433 0.030693581
-0.06788021 0.024876425 0.052899662 0.0698071 0.06840937 -0.03688266 0.024230916 -0.073253006
-0.001051696 0.034505326 -0.012042274 -0.036654014 -0.07127522 0.028962279 -0.031555127 0.020103052
-0.043379266 0.012003772 -0.010574862 -0.037723843 0.07002432 0.017012302 0.027699092 0.036863584
-0.025068544 -0.01895854 0.021260327 0.016473908 0.05413823 0.06797055 0.03039641 0.0038536245
-0.0512442 0.021009797 0.058082305 -0.04732679 -0.02710082 -0.0003319959 0.016213609 0.11101575
0.0503121 -0.050646022 -0.01666202 -0.048190445 0.07476539 0.085264415 -0.0038965484 0.06991932
0.02138567 0.020049432 -0.057928417 -0.0018544141 0.03822919 -0.05427066 0.02628785 -0.02667315
0.025285946 0.0111078145 0.012790238 -0.025118558 0.031332098 -0.07111302 -0.05533124 -0.038952958
0.064676754 0.04789618 0.019386776 -0.06091834 -0.040457208 -0.06469471 -0.06189353 0.03477938
0.009974201 0.007818779 0.04586042 -0.0018526652 -0.041404538 0.06139241 0.049568903 0.026311703
-0.03035624 -0.07166017 -0.057175912 0.03507434 0.04576143 0.027464418 0.04073014 7.63603e-06
0.03573152 0.03256007 0.063542105 0.038695123 -0.011151431 -0.035045054 -0.022992257 0.014853207
-0.038017247 -0.036481485 0.03465378 -0.055862308 0.019757017 0.013214119 -0.048838273 -0.0049092933
00000000: 613c 16bd 9dea 6bbc e653 123c f870 87bc
00000010: 07bc 39bd 75c0 5d3d 8716 13bd 3f71 0dbd
00000020: 2ddb 88bc 071d 00bd 2c2e c73c 85be d33b
00000030: 37bf 843d 5a02 d63c fb07 3d3d 468e 803d
00000040: 359e 49bd 015f 653d be7a d9bc ffcd 6d3d
00000050: 0887 54bd 12f0 d9ba 57b6 1e3c bd1d 30bc
00000060: 5244 39bc 644e 16bd ca2e 673d d8df 9c3d
00000070: ccf4 d8bb 03ca 3d3d 86f5 473d 3f6c b53b
00000080: ab92 99bc 283d c23c 8d71 9e3c 0a76 843d
00000090: 2392 343c 974a 663d 2e9b 5a3d d992 54bd
000000a0: a463 b0bc 08f3 d03c b517 8f3d d356 babc
000000b0: 88fe 02bd e512 d8bc 53de 6c3d 7d68 233d
000000c0: b501 a3bc 0e41 0e3d 4adf dbbc 5d0a 33bd
000000d0: ed68 8b3d dd51 633d b65b 213d 44bb 61bc
000000e0: 6afb 6a3d ea7a f4bc e2fa 9b3d 1350 aabc
000000f0: c2a5 063d 3232 383d 407d 83bd 6b6a 923d
00000100: f1bf bbbb c7bc 82bd 0c8d ecbc 3baf 41bd
00000110: 360c 98bc cac8 0dbd cc43 1abd 8bb5 ba3b
00000120: 5b5f 3cbd b599 203d f733 023d c7db fbbc
00000130: 2ffb fbbb 6939 9ebd 02cf 35bd 365d 54bc
00000140: 49a1 233c b0f9 52b8 598f a5bd ff5b 873d
00000150: 4ceb a23c 8cb2 3b3d 8659 67bd a66e 91bd
00000160: 9e0c cd3a 7704 943d 2d08 7b3d 8592 873c
00000170: 3f27 1b3d c60c ae3c 52dd 8fbc 99fc 483d
00000180: c66e c33c 8a59 963c 366e 14bd dce3 5a3d
00000190: 93e2 0e3d 006d 863d e648 cb3b cea6 6a3d
000001a0: e605 30bd 1b83 10bd f538 eebc d663 003d
000001b0: 172b 30bd d2d1 093d 37cb 4c3d 6926 f2bc
000001c0: 8584 23bc 3e8a 143d 52d7 733d c4a6 633d
000001d0: c4bd 573d 3771 edbb a76c 283d 5c90 293d
000001e0: 8b86 0bbd 2d93 50bd 4d79 603c e971 6b3d
000001f0: 9967 42bd 6511 5ebc 7859 983c 9fbe 49bb
00000200: 6fcd 403c 2e95 3dbd 30bf 8ebc c399 34bd
00000210: 38fd b7bc 8847 35bd d54a 823d 47bb 6abc
00000220: 8197 cb3c 0e11 91bd 6d7d 96bd 1ee9 933d
00000230: a90f 483c 6f45 4bbd e300 7e3c b557 6d3d
00000240: bfa6 82bc 9175 933d c1e2 e63b 9ddf 3abd
00000250: f37d 253d ed73 493d 8d52 76bc 1b71 fb3c
00000260: c804 8bbd a5c9 cb3c 51ad 583d 06f7 8e3d
00000270: 361a 8c3d 4612 17bd ea7f c63c ac05 96bd
00000280: 10d9 89ba 7555 0d3d f54c 45bc 8522 16bd
00000290: bef8 91bd 4d42 ed3c f33f 01bd 28af a43c
000002a0: 75ae 31bd 78ab 443c 3042 2dbc 5184 1abd
000002b0: e968 8f3d 625d 8b3c 35e9 e23c 45fe 163d
000002c0: 8c5c cdbc f14e 9bbc 232a ae3c 4af4 863c
000002d0: 0cc0 5d3d 2534 8b3d e401 f93c 178d 7c3b
000002e0: 70e5 51bd bd1c ac3c b6e7 6d3d bcd9 41bd
000002f0: 8a02 debc bc0f aeb9 67d2 843c 3a5c e33d
00000300: 1014 4e3d 3472 4fbd ca7e 88bc 5863 45bd
00000310: 991e 993d 1c9f ae3d 3c5d 7fbb dc31 8f3d
00000320: 0031 af3c b53e a43c 5946 6dbd d00f f3ba
00000330: 3696 1c3d e94a 5ebd 9e59 d73c a681 dabc
00000340: 7924 cf3c 8dfd 353c 258e 513c 6fc5 cdbc
00000350: 1656 003d b4a3 91bd 03a3 62bd 238d 1fbd
00000360: 3f75 843d c92e 443d 04d1 9e3c 8285 79bd
00000370: 75b6 25bd a97e 84bd 1284 7dbd d374 0e3d
00000380: d56a 233c 561a 003c 23d8 3b3d 21d5 f2ba
00000390: ce97 29bd 9c76 7b3d c308 4b3d a48b d73c
000003a0: a6ad f8bc 91c2 92bd 4a31 6abd 1caa 0f3d
000003b0: 5670 3b3d 0ffd e03c a6d4 263d 801c 0037
000003c0: 375b 123d b55d 053d 5d22 823d c77e 1e3d
000003d0: 7eb4 36bc 678b 0fbd 425a bcbc de5a 733c
000003e0: f9b7 1bbd 9c6d 15bd 1ff1 0d3d e0cf 64bd
000003f0: 78d9 a13c 0880 583c a40a 48bd 23de a0bb

conv2.bias f4 [16]
0.16399011 -0.08539907 0.09217364 0.36964265 -0.23259777 0.2298424 0.011934623 0.037974954
0.21234922 -0.11798872 -0.04320849 -0.2818048 0.061680503 -0.32481593 -0.3976411 -0.057910904
00000000: 06ed 273e b5e5 aebd 89c5 bc3d cd41 bd3e
00000010: 1c2e 6ebe ce5b 6b3e 7089 433c a08b 1b3d
00000020: 1372 593e 12a4 f1bd 63fb 30bd b848 90be
00000030: b2a4 7c3d 464e a6be 9d97 cbbe fc33 6dbd

deconv1.weight f4 [16, 8, 4, 4]
-0.09939118 -0.024439504 -0.010345429 0.030531121 -0.090345725 -0.27510247 -0.020981446 -0.07238953
-0.115634546 -0.05945617 -0.026961148 -0.016486773 -0.011338029 -0.0836317 -0.11327398 -0.024128387
0.023649115 0.23637073 -0.04718023 0.038555514 0.1130469 0.20065452 0.111033 -0.027034257
0.059884522 0.1899031 0.041696142 0.070413254 0.0063642287 0.09497112 0.03149745 0.0870525
0.047361698 0.06878826 -0.031293042 0.08631177 0.037693948 -0.10471286 0.042446494 -0.07707574
0.00033313586 -0.062245995 0.033636566 -0.025011413 -0.030591149 -0.075565375 -0.064511545 -0.096574895
0.034107577 0.08839422 0.038216054 -0.039984543 0.1329925 0.10649055 0.10392507 -0.054555334
0.012100092 0.09862773 0.040634405 -0.06026928 0.113164045 -0.024724482 0.0038259535 0.00428376
-0.04206665 -0.042981785 -0.026597582 -0.04293003 0.10651874 0.14740519 -0.028121747 0.22219098
-0.050627105 -0.017766245 -0.089198425 0.046593033 -0.05254192 0.034550764 0.03338932 0.24833773
0.028113574 0.030366123 0.08728148 -0.009147523 0.10303001 -0.021517776 0.11136362 -0.14382659
-0.016438317 -0.06377279 -0.080417596 -0.044213686 0.01598469 0.13503096 -0.09951321 0.0999292
0.0072277 -0.05354724 -0.020996261 0.058017474 -0.010149164 -0.094788164 0.06747034 -0.0628523
0.063166484 -0.0398886 -0.076325744 0.0046299603 -0.07305267 -0.07439064 0.031734847 -0.025467137
0.034685154 0.09579149 0.037179854 -0.065660566 0.05335235 -0.0004413257 0.04168422 0.15537643
0.04484174 0.019019375 0.02550108 0.014792545 0.055739462 -0.036956187 0.053416383 -0.04393168
-0.096402384 -0.071834505 -0.07758015 -0.06590453 0.016623769 -0.08315658 -0.03951371 -0.031428374
-0.06584353 0.0064542457 -0.0039048675 0.053482078 -0.09010901 -0.03974688 0.0166976 -0.06944859
0.021946505 -0.018356176 -0.040001206 0.07791042 -0.08128178 0.07803763 -0.06771441 0.08616025
-0.036899656 -0.014112519 -0.089906335 -0.052637197 0.046268623 -0.008661027 0.032041963 0.011777449
0.017351719 -0.06807848 0.043366745 -0.09409246 0.061629683 -0.13954034 -0.023851706 0.042768013
-0.026902173 -0.06332499 0.009933354 0.08558472 -0.052361265 0.008934474 0.008180523 0.03829394
-0.041574188 0.036602862 -0.02416681 0.036687125 0.030296063 0.102875546 0.01596756 0.0754222
-0.033089127 0.038097154 -0.039608117 0.03743631 0.0035296492 0.062066182 -0.041423738 0.060949758
0.03100465 -0.0012034943 0.0036148631 0.04155793 0.11347026 0.027850889 0.028371383 0.045088693
-0.074099235 0.013584522 0.029840948 -0.09588774 0.017191919 0.062834375 0.092364505 -0.090060435
-0.08893328 -0.033721045 -0.007801001 -0.0069426913 -0.00013813429 -0.0012005954 0.0787468 0.020181399
-0.022571135 0.01761759 0.015426712 0.014546039 0.040262073 -0.02227853 0.11089753 0.036788374
0.0045495015 -0.010825564 -0.0043243985 -0.08050061 0.10039188 0.011525638 0.07688457 -0.011280357
-0.054656003 -0.049397588 -0.08730602 -0.072670735 0.095754765 -0.02777173 0.093383014 -0.028317528
0.05679912 0.071018144 -0.06375317 0.08726962 0.053504996 0.035711683 -0.013545801 0.10062365
-0.027191332 0.058350198 0.05647331 0.09530547 -0.010500793 -0.00036787172 -0.06946902 0.07676547
00000000: 9a8d cbbd 5b35 c8bc e07f 29bc 671c fa3c
00000010: 2e07 b9bd 3bda 8cbe 48e1 abbc f640 94bd
00000020: ced1 ecbd 5088 73bd a0dd dcbc 450f 87bc
00000030: 24c3 39bc 1947 abbd 30fc e7bd e5a8 c5bc
00000040: cabb c13c 2b0b 723e 0f40 41bd 63ec 1d3d
00000050: 2285 e73d 6178 4d3e 4565 e33d f276 ddbc
00000060: 7949 753d f575 423e 93c9 2a3d d334 903d
00000070: 058b d03b 3880 c23d 7803 013d 9548 b23d
00000080: 57fe 413d dce0 8c3d 222d 00bd 3ac4 b03d
00000090: f864 1a3d b273 d6bd 60dc 2d3d e3d9 9dbd
000000a0: bda8 ae39 a8f5 7ebd 7fc6 093d bce4 ccbc
000000b0: 4a9a fabc 05c2 9abd a11e 84bd 0fc9 c5bd
000000c0: 63b4 0b3d 0708 b53d 7088 1c3d d5c6 23bd
000000d0: 302f 083e b817 da3d abd6 d43d 6a75 5fbd
000000e0: 773f 463c 56fd c93d 4370 263d ecdc 76bd
000000f0: 8dc2 e73d ff8a cabc d9bc 7a3b c95e 8c3b
00000100: 144e 2cbd ab0d 30bd 2ce3 d9bc 66d7 2fbd
00000110: 7f26 da3d 63f1 163e 945f e6bc 0886 633e
00000120: 5e5e 4fbd 848a 91bc aaad b6bd 56d8 3e3d
00000130: 3236 57bd 1a85 0d3d 3dc3 083d 3f4c 7e3e
00000140: 704e e63c 60c2 f83c a2c0 b23d 7edf 15bc
00000150: 6601 d33d 0c46 b0bc 9c12 e43d 4747 13be
00000160: a6a9 86bc 4f9b 82bd fbb1 a4bd 6919 35bd
00000170: 53f2 823c 8e45 0a3e 95cd cbbd aea7 cc3d
00000180: 58d6 ec3b 5a54 5bbd 5a00 acbc bba3 6d3d
00000190: ae48 26bc 4c20 c2bd e42d 8a3d b5b8 80bd
000001a0: 6e5d 813d 3b62 23bd ac50 9cbd ecb6 973b
000001b0: a39c 95bd 1f5a 98bd 66fc 013d 75a0 d0bc
000001c0: 0512 0e3d 542e c43d e749 183d 0c79 86bd
000001d0: fe87 5a3d bc61 e7b9 13bd 2a3d 001b 1f3e
000001e0: f9ab 373d 85ce 9b3c a4e7 d03c 6e5c 723c
000001f0: 104f 643d 5f5f 17bd 23cb 5a3d b5f1 33bd
00000200: 9d6e c5bd f81d 93bd 57e2 9ebd f4f8 86bd
00000210: 922e 883c ff4d aabd 21d9 21bd 0abb 00bd
00000220: f9d8 86bd 237e d33b cee8 7fbb 0610 5b3d
00000230: 138b b8bd a0cd 22bd 68c9 883c 103b 8ebd
00000240: 28c9 b33c b15f 96bc 4ed8 23bd 808f 9f3d
00000250: 1077 a6bd 31d2 9f3d daad 8abd c974 b03d
00000260: 1824 17bd 3238 67bc d020 b8bd 1a9a 57bd
00000270: 2b84 3d3d fbe6 0dbc 6f3e 033d 34f6 403c
00000280: 3125 8e3c bb6c 8bbd 54a1 313d 8cb3 c0bd
00000290: 686f 7c3d aae3 0ebe a764 c3bc 832d 2f3d
000002a0: f261 dcbc 88b0 81bd 82bf 223c 0b47 af3d
000002b0: c478 56bd e661 123c 9a07 063c 1bda 1c3d
000002c0: b249 2abd e2ec 153d 79f9 c5bc 3d45 163d
000002d0: 732f f83c 6ab0 d23d 66ce 823c f476 9a3d
000002e0: 7788 07bd c30b 1c3d 1f3c 22bd d156 193d
000002f0: b051 673b 1c39 7e3d f0ab 29bd 74a6 793d
00000300: 77fd fd3c 91be 9dba 57e7 6c3b a638 2a3d
00000310: 1863 e83d 8c27 e43c 1a6b e83c ecae 383d
00000320: 57c1 97bd 9d91 5e3c 0175 f43c cb60 c4bd
00000330: 11d6 8c3c 4faf 803d 9a29 bd3d 9b71 b8bd
00000340: a722 b6bd 141f 0abd 8a9f ffbb 847f e3bb
00000350: 24d8 10b9 4c5d 9dba 0146 a13d 7653 a53c
00000360: 1ae7 b8bc c452 903c 52c0 7c3c 8252 6e3c
00000370: d8e9 243d 7781 b6bc 3f1e e33d 68af 163d
00000380: fc13 953b b55d 31bc afb3 8dbb 81dd a4bd
00000390: 429a cd3d 08d6 3c3c a875 9d3d 3fd1 38bc
000003a0: f9de 5fbd 2055 4abd 80cd b2bd 65d4 94bd
000003b0: 131b c43d 8a81 e3bc 983f bf3d 29fa e7bc
000003c0: 32a6 683d f671 913d 0691 82bd 6aba b23d
000003d0: 0e28 5b3d 6a46 123d 35ef 5dbc c613 ce3d
000003e0: 5bc0 debc 9e00 6f3d 8f50 673d 842f c33d
000003f0: 850b 2cbc e8de c0b9 c645 8ebd 3737 9d3d

deconv1.bias f4 [8]
-0.30961663 0.33872095 -0.30382296 0.27903017 -0.10293715 0.06504187 -0.17298253 -0.48581576
00000000: 1286 9ebe d56c ad3e af8e 9bbe 0bdd 8e3e
00000010: b6d0 d2bd ac34 853d 5522 31be d8bc f8be

deconv2.weight f4 [8, 3, 4, 4]
0.046980623 0.039559748 0.120072745 -0.0099568255 0.0795771 0.090155065 0.07611531 0.07217236
0.08745173 0.17307758 0.21945359 -0.038323097 0.06845067 0.13627529 0.20534296 0.043260172
0.026264362 0.030926012 -0.00070761156 -0.010025591 -0.059814233 -0.053440128 0.11550563 -0.0030521723
0.09822441 0.19795418 0.2649953 0.18184637 0.08068036 0.05095922 0.12695499 0.14980413
0.03084148 0.025620412 0.020253511 0.11260262 0.13091618 0.028083198 0.17834432 0.1472769
0.06987593 0.1917252 0.010312133 0.18440865 0.031970624 0.06734555 0.14206076 0.14526816
-0.08460732 -0.08086562 -0.035431206 0.05836177 0.070284575 0.1319926 0.08424979 0.097598955
0.1570964 0.32209 0.31223074 0.113815665 -0.029540973 0.23689634 0.30101457 0.04059494
0.27780053 0.29550996 0.14582828 0.1009581 0.19136497 0.28982392 0.21804427 0.15160908
0.17470406 0.13070042 0.114915065 0.039704572 0.19585457 0.13294446 0.1284802 0.003449765
0.13599098 0.09509939 0.13199592 0.06896901 0.24526554 0.24109548 0.19467358 0.11922333
0.10433643 0.119566076 0.00031438225 0.041914172 0.14938723 0.16305256 0.060552165 0.045571245
0.063169226 0.10357806 0.15073079 0.050667506 0.14090537 0.12800667 0.1834111 0.018920654
0.02877013 0.09925048 0.15524007 0.05208447 -0.05313357 -0.119618356 0.02998573 -0.03316675
0.031145556 0.035081707 0.008712515 0.080981165 0.048238873 0.19459629 0.08855856 0.09628998
0.010728224 0.06341426 0.011558423 0.048455026 0.13951375 0.11949978 -0.09392104 0.04556376
-0.046546735 0.021528669 0.111850195 -0.108456135 0.026860924 0.07382933 -0.0716966 0.038212754
0.12965836 0.012251304 -0.024720047 -0.03245682 0.097922266 0.049418528 0.06270125 -0.06460293
-0.0771888 0.10123784 0.06871737 -0.040415134 -0.005474139 0.15645799 0.038829006 0.030348198
0.05508046 0.114470765 0.02536932 0.073426284 -0.021481683 -0.055600666 0.026109722 0.05882321
0.0063888473 0.03921148 0.06690454 0.14286615 0.09032981 0.21199885 0.17088915 0.17082113
-0.0066526905 0.022419889 0.085160285 0.14950572 -0.065290526 0.07255276 -0.022538355 -0.044960123
0.18235892 0.16992553 0.23251751 0.2625829 0.15806653 0.15441889 0.09194311 0.10423464
0.06806141 0.041954067 0.10154446 0.051920075 -0.09399647 0.06125016 -0.020814603 -0.030958382
-0.23665445 -0.23396294 -0.135563 -0.11277497 -0.26329106 -0.29967362 -0.13859269 -0.11498361
-0.2707019 -0.29819116 -0.14298974 -0.15069394 -0.237395 -0.27290928 -0.1506409 -0.14766918
0.006379856 0.01117059 0.016779246 0.04274031 0.042843957 0.015715355 -0.040151384 0.035949647
0.027860181 0.030265933 -0.040310245 -0.023864947 -0.004714829 0.00832482 -0.02491438 -0.0049991594
0.0006541161 0.050124913 0.015761148 0.036591433 0.02351438 0.047196463 -0.053425223 0.01196473
0.007857852 0.016559208 -0.05304561 0.039070837 -0.0047562 0.04100986 0.0310613 -0.025160635
-0.19490808 -0.09174237 -0.041272044 -0.048363056 -0.25047436 -0.23444273 -0.07587993 -0.06490504
-0.14727157 -0.11594599 0.059646275 -0.06255586 -0.11517784 -0.05894179 0.06938461 0.020877248
00000000: c16e 403d 6709 223d b3e8 f53d f421 23bc
00000010: 52f9 a23d 38a3 b83d 58e2 9b3d 1acf 933d
00000020: e519 b33d 403b 313e 71b8 603e aef8 1cbd
00000030: dd2f 8c3d c08b 0b3e 6d45 523e 9431 313d
00000040: 5c28 d73c 8c58 fd3c 027f 39ba 6042 24bc
00000050: c5ff 74bd 09e4 5abd 378e ec3d f406 48bb
00000060: e129 c93d 80b4 4a3e 77ad 873e ef35 3a3e
00000070: bf3b a53d 9dba 503d 7d00 023e 4166 193e
00000080: 45a7 fc3c e6e1 d13c b1ea a53c 349c e63d
00000090: e40e 063e bc0e e63c e59f 363e c1cf 163e
000000a0: 1d1b 8f3d 9c53 443e 38f4 283c 9fd5 3c3e
000000b0: a1f3 023d 77ec 893d 6078 113e 2dc1 143e
000000c0: 9a46 adbd e09c a5bd 5020 11bd c00c 6f3d
000000d0: 5cf1 8f3d 1129 073e 278b ac3d f6e1 c73d
000000e0: e1dd 203e fbe8 a43e b5dc 9f3e 3018 e93d
000000f0: e9ff f1bc f494 723e 951e 9a3e e146 263d
00000100: df3b 8e3e 154d 973e 0254 153e 1fc3 ce3d
00000110: 2ef5 433e cd63 943e ff46 5f3e 693f 1b3e
00000120: 9fe5 323e 55d6 053e 9758 eb3d 43a1 223d
00000130: 1a8e 483e 9822 083e 5090 033e 7415 623b
00000140: 3841 0b3e 78c3 c23d f029 073e a03f 8d3d
00000150: e426 7b3e bce1 763e 8358 473e 5c2b f43d
00000160: 57ae d53d 0fdf f43d acd3 a439 32ae 2b3d
00000170: f7f8 183e 40f7 263e 8c05 783d eaa8 3a3d
00000180: de5e 813d bc20 d43d 2c59 1a3e bb88 4f3d
00000190: 7f49 103e 2e14 033e 1fd0 3b3e 7dff 9a3c
000001a0: 56af eb3c d643 cb3d 41f7 1e3e 8656 553d
000001b0: 96a2 59bd 78fa f4bd a2a4 f53c dcd9 07bd
000001c0: f724 ff3c d6b1 0f3d f0be 0e3c 74d9 a53d
000001d0: 2096 453d 4044 473e 315e b53d ae33 c53d
000001e0: 6fc5 2f3c 56df 813d 8a5f 3d3c c778 463d
000001f0: b1dc 0e3e 4dbc f43d ad59 c0bd 11a1 3a3d
00000200: caa7 3ebd e45c b03c b711 e53d 401e debd
00000210: 710b dc3c d533 973d abd5 92bd fa84 1c3d
00000220: 29c5 043e b2b9 483c b281 cabc 71f1 04bd
00000230: 788b c83d 156b 4a3d 8369 803d 8a4e 84bd
00000240: 2915 9ebd c955 cf3d b1bb 8c3d 578a 25bd
00000250: 6860 b3bb 8636 203e 2a0b 1f3d c99c f83c
00000260: 0c9c 613d a66f ea3d 52d3 cf3c 8560 963d
00000270: 5bfa afbc 86bd 63bd 0ee4 d53c 9bf0 703d
00000280: 8959 d13b 389c 203d 3f05 893d 814b 123e
00000290: d6fe b83d 3a16 593e 91fd 2e3e bceb 2e3e
000002a0: d0fe d9bb eaa9 b73c 8468 ae3d 0718 193e
000002b0: 0ab7 85bd 8b96 943d 5ba2 b8bc 1b28 38bd
000002c0: 4cbc 3a3e f500 2e3e 1219 6e3e 4471 863e
000002d0: 31dc 213e fc1f 1e3e ab4c bc3d f978 d53d
000002e0: c863 8b3d 07d8 2b3d 8bf6 cf3d 25aa 543d
000002f0: 3981 c0bd 73e1 7a3d 6383 aabc 6f9c fdbc
00000300: 8b55 72be fb93 6fbe 07d1 0abe 90f6 e6bd
00000310: 16ce 86be d26e 99be 3eeb 0dbe 877c ebbd
00000320: 7099 8abe 83ac 98be e76b 12be 834f 1abe
00000330: ad17 73be c4ba 8bbe 9c41 1abe 9736 17be
00000340: 1c0e d13b da04 373c a174 893c 7710 2f3d
00000350: 257d 2f3d 7dbd 803c c775 24bd f03f 133d
00000360: 093b e43c 43f0 f73c 5b1c 25bd 6c80 c3bc
00000370: da7e 9abb d364 083c 3e19 ccbc fdcf a3bb
00000380: fd78 2b3a c84f 4d3d 861d 813c e6e0 153d
00000390: 3ba1 c03c 1451 413d 68d4 5abd b707 443c
000003a0: 38be 003c 2da7 873c 5b46 59bd be08 203d
000003b0: e6d9 9bbb f4f9 273d 4474 fe3c ad1d cebc
000003c0: fc95 47be 6ce3 bbbd e00c 29bd 5718 46bd
000003d0: 2d3e 80be c111 70be f066 9bbd efec 84bd
000003e0: 5cce 16be 1775 edbd a74f 743d 491d 80bd
000003f0: 5ce2 ebbd f26c 71bd 8519 8e3d c306 ab3c

deconv2.bias f4 [3]
0.6227687 0.19378094 0.0869144
00000000: c56d 1f3f 836e 463e 2d00 b23d
